inertia_nn_model.pth (torch, 22882 bytes, 6 tensors)

fc1.weight f4 [64, 4]
0	0x3f813f5f	1.0097464
1	0xbff4fc08	-1.9139414
2	0xbbecc6ba	-0.0072258385
3	0x3fb73265	1.4312254
4	0xbfd54d93	-1.6664299
5	0xbec0e5e6	-0.376754
6	0x3bc8d82c	0.0061292853
7	0x3ec367ba	0.38165075
8	0x3f8950ac	1.0727744
9	0x3f936d1f	1.1517676
10	0xbb5939e5	-0.003314608
11	0xbd140e60	-0.03614652
12	0xbf9a4bd1	-1.2054387
13	0x3f9e9e3d	1.239204
14	0x3c780995	0.015139003
15	0x3dc18f95	0.09451214
16	0xbfe59bbf	-1.7938155
17	0x3f0b1ed3	0.5434391
18	0xbaf42c07	-0.0018628844
19	0x3daa4f90	0.083159566
20	0xbff87ad0	-1.9412479
21	0x3eaacaaa	0.33357745
22	0xb9182bbe	-0.00014512145
23	0xbc432f18	-0.0119130835
24	0x3fabd979	1.3425742
25	0x3f2f38e8	0.6844621
26	0x3b4f0517	0.0031588727
27	0x3e557375	0.20844825
28	0xbffa6731	-1.9562742
29	0x3ec0f591	0.37687352
30	0xbb783168	-0.0037871245
31	0xbe963ef1	-0.29344895
32	0x40583eff	3.378845
33	0xc0311d97	-2.767431
34	0x3aaa8e44	0.0013012369
35	0x3e8011bc	0.2501353
36	0xbe631012	-0.22174099
37	0xc0420a75	-3.0318882
38	0x3c1d2da1	0.009593398
39	0x3fce1bab	1.6102194
40	0x3e03e6ac	0.12880963
41	0xbfad2628	-1.3527269
42	0xba9a46f1	-0.001177041
43	0x3e533d68	0.20628893
44	0xbe087784	-0.13326842
45	0xbe0d6f47	-0.1381198
46	0x3e75e2e2	0.2401233
47	0x3f17ca03	0.5929262
48	0xbed8a0a7	-0.42310068
49	0x3fe025ec	1.7511573
50	0x3c36e301	0.01116252
51	0x3e4ce67e	0.20009801
52	0xbdca1c4e	-0.0986868
53	0x403347c2	2.8012547
54	0xbc8af60e	-0.016963031
55	0x3f01973e	0.506214
56	0xbd4a869e	-0.049444787
57	0x4000ae44	2.0106363
58	0xbb12779b	-0.0022349122
59	0x3f20378f	0.62584776
60	0xbe4a4a11	-0.19754817
61	0x3e180490	0.1484549
62	0xbe4abbcf	-0.19798206
63	0xbf1ae7a9	-0.60509735
64	0x3f2005b2	0.6250869
65	0x3ff12dbe	1.8842084
66	0xbc98c74b	-0.018649718
67	0x3e2a84a0	0.16652155
68	0x3fffb269	1.9976321
69	0x3ff3aa6d	1.9036385
70	0x3c434248	0.011917658
71	0x3f969756	1.1764934
72	0x3ec5dde0	0.3864584
73	0xbfb60aae	-1.4222009
74	0x3c78c95d	0.0151847275
75	0x3e25bcfb	0.16185372
76	0xbf669ebe	-0.9008597
77	0xbfdb8e82	-1.7152865
78	0x3c1fb72d	0.009748262
79	0xbda490a5	-0.08035401
80	0xbffe97b8	-1.9890051
81	0x3fac23fe	1.3448484
82	0xbad00d36	-0.0015873078
83	0x3faf51fa	1.3696892
84	0xbec2ea66	-0.38069457
85	0xbfdae844	-1.7102132
86	0x3a289701	0.0006431193
87	0x3da224ab	0.0791715
88	0x3f026695	0.5093778
89	0x4003db3f	2.0602567
90	0x3c3c189f	0.0114804795
91	0xbfc9bd74	-1.5760942
92	0x40014159	2.0196135
93	0xbf7bd2be	-0.9836844
94	0x3c19afb7	0.009380273
95	0x3ea50d0a	0.3223651
96	0x3fb78c26	1.4339645
97	0x3ffb730c	1.9644485
98	0x3c6cbd11	0.014449374
99	0xbf927965	-1.1443297
100	0xc0136cb6	-2.3035102
101	0xbf0c5c0d	-0.5482796
102	0x3b8da8eb	0.004323115
103	0xbfe85f08	-1.8154001
104	0x3f2090f0	0.6272116
105	0xbfd1a6f4	-1.6379075
106	0x3bdc2709	0.0067185205
107	0x3d5db987	0.05413201
108	0xbf5d131b	-0.8635728
109	0x400681cd	2.1016724
110	0xba4ea2a4	-0.00078825117
111	0xbd7b1a8c	-0.061304614
112	0x3e94b1d8	0.29041934
113	0x408d1f2e	4.410056
114	0x3bd53af0	0.00650727
115	0x3e909a3a	0.28242666
116	0x3f21b90e	0.63172996
117	0x3fce5fea	1.6123021
118	0x3cc911de	0.024544653
119	0x3eeaa524	0.45829117
120	0xbf41695e	-0.755514
121	0x3fe1ec54	1.7650247
122	0x3b8176cd	0.0039509297
123	0x3f64ae3c	0.8932836
124	0xc03e3114	-2.9717455
125	0xbdbdde2f	-0.09270894
126	0x3ba1dfcb	0.0049400083
127	0x3f9f58f3	1.244902
128	0xbfbf7129	-1.4956409
129	0x3fd4371a	1.6579316
130	0x3c18b913	0.009321469
131	0x3f700454	0.93756604
132	0x401b5b04	2.4274302
133	0x3f074c3d	0.52850705
134	0x3bbdf35f	0.0057968344
135	0x3fef363b	1.8688425
136	0x3fccbd7e	1.5995328
137	0xbfd678a1	-1.6755563
138	0x3c19e214	0.00939228
139	0xbf7957e9	-0.97399765
140	0xc05770bd	-3.366256
141	0x40762872	3.8462186
142	0xbb9dd71c	-0.004816903
143	0x3fbef9eb	1.4920019
144	0xc039bf88	-2.9023151
145	0xc03b3c99	-2.9255736
146	0xbcdb5272	-0.026772711
147	0x3f890808	1.0705576
148	0x4021bc77	2.527128
149	0x3f0e188d	0.5550621
150	0x3a9825ac	0.0011607907
151	0x3fa2ba6e	1.2713144
152	0xbfed87b9	-1.8557044
153	0x3e5bb1aa	0.21454492
154	0xbba3f5e4	-0.0050036777
155	0x3e9e8e27	0.3096783
156	0xc04466a6	-3.0687652
157	0xc04a668c	-3.162509
158	0x3c3c841d	0.011506108
159	0x3e4c6ad9	0.19962634
160	0x3faeb9fb	1.3650507
161	0x3f40f550	0.7537432
162	0x3cab50a8	0.020912483
163	0xc01eb3a5	-2.4797146
164	0xbfd44304	-1.6582952
165	0xbf407637	-0.7518038
166	0xbc007e60	-0.00784263
167	0x3f0ba2ba	0.54545176
168	0xc0843c4b	-4.13236
169	0xbf8a4ae0	-1.08041
170	0x3bfb2cc6	0.0076652495
171	0xbd97676c	-0.07392773
172	0xbe4a3add	-0.19749017
173	0x3fd2ebda	1.6478226
174	0x3b8bb097	0.0042629945
175	0x3e7505c2	0.23927978
176	0x3fb86bd9	1.4407912
177	0xbfc9bfa2	-1.5761607
178	0x3c0f77d7	0.008756599
179	0x3f763180	0.9616928
180	0x40320ac5	2.7819073
181	0x3ec1b9e4	0.37837136
182	0xbbdc882e	-0.006730101
183	0x3f936e82	1.1518099
184	0x3d501364	0.050799742
185	0xbfd519a0	-1.6648445
186	0x3ba82877	0.005131777
187	0x3eb2d393	0.34927043
188	0xbfd39f6b	-1.6533026
189	0xbfb33f33	-1.4003662
190	0x3c56d6aa	0.013112703
191	0xbfa3681f	-1.276615
192	0xbfbde7cd	-1.4836365
193	0xbf162861	-0.58655363
194	0xbb570009	-0.0032806417
195	0xbcbeb8ca	-0.023281474
196	0xbfe31346	-1.7740257
197	0xbf856f09	-1.042451
198	0x3c105b92	0.008810895
199	0x3fb93260	1.4468498
200	0xc005e4ea	-2.0920968
201	0x3e79610d	0.24353428
202	0xbc0b392a	-0.008497516
203	0x3fb30c61	1.3988153
204	0xbfd68913	-1.6760582
205	0x3fe7a424	1.8096967
206	0x3c1ed99e	0.009695439
207	0xbf983dfd	-1.1893917
208	0xc01e3a2f	-2.4723012
209	0x3f266c89	0.6500936
210	0x3b4e0ba6	0.0031440048
211	0xbeb85f09	-0.36010006
212	0x40080006	2.1250014
213	0x3f168c0b	0.5880744
214	0x3ae465c8	0.0017425353
215	0xbe8ae824	-0.27130234
216	0xbda22009	-0.079162665
217	0xc05734c4	-3.3625956
218	0x3bcbb17b	0.0062162257
219	0x3f9e4b27	1.2366685
220	0x3fa11fa0	1.2587776
221	0x3ee57ce8	0.44821858
222	0x3c242616	0.010018846
223	0x3ea2434d	0.3169197
224	0x401f8729	2.4926245
225	0x402b8479	2.6799605
226	0xbb6dcfb6	-0.0036287135
227	0x3f338ca5	0.7013648
228	0xbf833996	-1.0251949
229	0x3fb1b26b	1.3882574
230	0xbc206216	-0.0097890105
231	0x3f4f219b	0.8091065
232	0xbfe7aab8	-1.8098974
233	0x3fc3609b	1.5263857
234	0x3c1d9ecc	0.00962038
235	0xbeb5edd0	-0.35533
236	0x3f7131e4	0.9421675
237	0x3fae72f3	1.362883
238	0xbb877cc8	-0.004134748
239	0x3fff87ad	1.996328
240	0x3ff68ed3	1.9262336
241	0xc00ca00b	-2.1972682
242	0x3c48f5c1	0.012265624
243	0x3f9f604b	1.2451261
244	0x3f0de595	0.5542844
245	0x3fd75a51	1.6824437
246	0xbbece07a	-0.007228908
247	0x3fb01b58	1.3758345
248	0xc0150a35	-2.328748
249	0x3f50f3a1	0.8162175
250	0xba378332	-0.00070004456
251	0xbf83ff27	-1.0312241
252	0xc05a0fe3	-3.4072196
253	0x40038a22	2.055306
254	0x3cd76519	0.026293324
255	0x3e6b6101	0.22986223

fc1.bias f4 [64]
0	0x3f05ef7c	0.5231855
1	0x40163e95	2.3475697
2	0x3fc55e0a	1.5419323
3	0x40016807	2.0219743
4	0x40006eea	2.0067697
5	0x4025e04c	2.591815
6	0x3fb429a9	1.4075214
7	0x3fb21edf	1.3915671
8	0xc049f425	-3.1555264
9	0xbfbe93bf	-1.4888839
10	0x3fedcaeb	1.8577551
11	0x40bc2bd3	5.8803496
12	0x400afdd1	2.1717417
13	0xbfcf47d5	-1.6193796
14	0xbfba5291	-1.4556447
15	0x40e3eeed	7.1229157
16	0x400eebe0	2.2331467
17	0x3f96024d	1.1719452
18	0x3fe4c9c1	1.787407
19	0x3fd903c2	1.6954272
20	0xbdd29124	-0.102815896
21	0x4002501d	2.0361397
22	0xbed76c68	-0.42074895
23	0x3fde7b37	1.7381352
24	0xc03306cd	-2.79729
25	0xbf7da9ec	-0.99087405
26	0x3fdeb033	1.7397522
27	0x3fe055da	1.75262
28	0x3cdef601	0.027216913
29	0x3ffd978c	1.9811873
30	0xbe6dd5e5	-0.23226126
31	0xbfa405ad	-1.2814232
32	0x3f8f56e2	1.119839
33	0x3f955b7e	1.1668546
34	0xc012d808	-2.2944355
35	0xc054a640	-3.322647
36	0xbfb720e7	-1.4306916
37	0xbf24092f	-0.64076513
38	0x401ace07	2.418825
39	0xc0320ff3	-2.7822235
40	0x4009b34c	2.1515684
41	0x3febee1f	1.8432044
42	0xbecaec7f	-0.39633557
43	0x40093e3e	2.144424
44	0x3f66c312	0.90141404
45	0xbfe2408d	-1.7675949
46	0x4004bce9	2.0740302
47	0xc0305e41	-2.7557528
48	0x3fbf9ca8	1.4969683
49	0x3ec6bd79	0.3881643
50	0x3ef4485f	0.47711465
51	0xc014841f	-2.320564
52	0xc04a6a91	-3.1627543
53	0x3fe143cd	1.7598816
54	0xbfb61256	-1.4224346
55	0x3fe65ffc	1.7998042
56	0xc001f8e9	-2.0308173
57	0x3fe9306e	1.8217905
58	0x40719677	3.7748086
59	0xbfa70e35	-1.3051211
60	0x3c384861	0.011247725
61	0x3edaa021	0.42700294
62	0x400ba09c	2.1816778
63	0xbfc80791	-1.5627309

fc2.weight f4 [64, 64]
0	0x3d8f059f	0.06983494
1	0x3fc7625a	1.557689
2	0xbf701d75	-0.9379495
3	0xbd73bc48	-0.05950573
4	0x3fa0eb86	1.2571876
5	0xbf48fede	-0.78513896
6	0x3e5ea179	0.21741284
7	0x3fa4f36f	1.288679
8	0xbf7e4e41	-0.99338156
9	0xbfa9e73f	-1.3273696
10	0x3f2eaf5e	0.6823634
11	0x3f771ea9	0.9653116
12	0x3f50b2a0	0.8152256
13	0xbfa6ec07	-1.304078
14	0x406b4475	3.6760533
15	0x3fa17739	1.2614509
16	0x3f88a878	1.0676413
17	0x3f2d0ce9	0.67597824
18	0x3f66f209	0.90213066
19	0x3e9b9a98	0.30391383
20	0xbebd5783	-0.3698083
21	0x3f68df84	0.9096606
22	0x3fb7feb3	1.4374603
23	0x3e9d5c77	0.30734608
24	0x3fa826b6	1.3136814
25	0x3fb0eac2	1.3821642
26	0x3e9612ba	0.29311162
27	0x401b84e7	2.4299867
28	0xbf9ff998	-1.2498045
29	0x3fe4aefd	1.7865902
30	0xbbe0cdde	-0.006860479
31	0xbfb6e46a	-1.4288456
32	0xbee87d30	-0.4540801
33	0x3df25506	0.11832623
34	0xbe2ab8cf	-0.16672061
35	0xbf71f289	-0.94510704
36	0xbf983d87	-1.1893777
37	0x3f25594e	0.64589393
38	0x3f46e2eb	0.7769
39	0xbfb2cba8	-1.3968401
40	0x3f64eea3	0.8942663
41	0x3fd05e51	1.6278783
42	0xbf7b3f55	-0.9814351
43	0x3f965abf	1.1746444
44	0x3e66410d	0.22485752
45	0xbf822045	-1.0166098
46	0x3ec6f97e	0.38862222
47	0x3f851a26	1.0398605
48	0x3f63db32	0.8900634
49	0x3ec8eea0	0.39244556
50	0x3e9f1558	0.3107097
51	0x3fb8e787	1.4445657
52	0x3f645e7f	0.8920669
53	0xbd372d51	-0.04472095
54	0xbe9d87a9	-0.30767563
55	0xbe817b79	-0.25289515
56	0xbf222463	-0.6333677
57	0x3fbb89cb	1.4651426
58	0xc0169416	-2.3527884
59	0xbd638f66	-0.055556677
60	0xbf610c9c	-0.87909865
61	0xbe869242	-0.2628346
62	0xc0059ca5	-2.0876858
63	0xbf9bdbc4	-1.2176442
64	0xbd8db671	-0.069195636
65	0x3f9be7f0	1.2180157
66	0xbc2a6058	-0.010398947
67	0x3d7f81c8	0.06237963
68	0x3f8e77ef	1.1130351
69	0x3f068241	0.525425
70	0x3f789488	0.9710164
71	0x3ead5945	0.3385717
72	0xbfc7a2ec	-1.5596595
73	0xbf4e24f0	-0.8052511
74	0x3f78a253	0.9712269
75	0x3f191117	0.597917
76	0x3f1e7d3e	0.61909854
77	0xbf71a941	-0.94398886
78	0x402d0f0d	2.7040436
79	0x3f6f3766	0.93443906
80	0x3fbb2501	1.4620668
81	0x3f29ced2	0.6633121
82	0x3f721059	0.94556195
83	0xbe296859	-0.16543712
84	0xbdd35d41	-0.10320521
85	0x3f91ea88	1.1399698
86	0x3faa14fa	1.3287652
87	0x3f9c3b0a	1.2205517
88	0x3fd720b1	1.6806852
89	0x3fe0fa72	1.757643
90	0x3f2d120d	0.6760567
91	0x3fa6f8aa	1.3044636
92	0xbfa6af23	-1.3022197
93	0x3fc652bb	1.5493997
94	0x3e3c3fd9	0.18383731
95	0xbfb9254e	-1.446451
96	0x3e7e0f54	0.24810535
97	0xbf0c1f46	-0.5473522
98	0x3e90dd96	0.28294057
99	0xbfd09bdb	-1.6297563
100	0xbf93a89f	-1.1535834
101	0x3e753992	0.23947743
102	0x3f64ada9	0.89327484
103	0xbfa589f5	-1.2932726
104	0x3f01bc93	0.50678366
105	0x3f6ff596	0.9373411
106	0xbf7ca3c3	-0.9868738
107	0x3f921b17	1.1414517
108	0x3de09737	0.10966342
109	0xbc5c7c1b	-0.013457323
110	0x3f334fa8	0.7004342
111	0x3fbd845f	1.4806021
112	0x3ed9b2ee	0.42519325
113	0x3f3f0ad0	0.74625874
114	0x3f4790e4	0.7795546
115	0x3f77e8be	0.9683951
116	0x3eafe25b	0.34352383
117	0x3e8ca315	0.27468172
118	0xbf0f0982	-0.5587388
119	0x3dbd7a7f	0.0925188
120	0xbf3dfe00	-0.742157
121	0x3fa3702f	1.2768611
122	0xbfce35c8	-1.6110163
123	0x3d910b43	0.07082226
124	0xbf5cf92f	-0.86317724
125	0xbcd1b0c5	-0.025596986
126	0xbf93eb1c	-1.1556125
127	0xbf937224	-1.1519208
128	0xbed13893	-0.40863475
129	0x3f7dd4cb	0.9915282
130	0x3f1dbe3b	0.61618394
131	0x3eb38e1c	0.35069358
132	0x3f68eced	0.9098652
133	0x3fb2b83f	1.3962477
134	0x3fcae49d	1.5851017
135	0xbd0c002f	-0.034179863
136	0xbfbf804d	-1.4961029
137	0x3ca06a88	0.019582048
138	0x3f67bc43	0.9052164
139	0x3e891406	0.2677309
140	0x3ebd18f3	0.36933097
141	0xbf35810a	-0.70900023
142	0x4010182e	2.2514758
143	0x3f02f658	0.5115714
144	0x3fbdb98e	1.4822252
145	0x3f816906	1.0110176
146	0x3f53bfc2	0.82714474
147	0xbebe0c11	-0.3711858
148	0x3e079e1f	0.13243912
149	0x3f58bb64	0.84660935
150	0x3f46dc98	0.7768035
151	0x3febaf0f	1.8412799
152	0x401f0b59	2.4850676
153	0x4007c2c1	2.1212618
154	0x3f5178bc	0.8182485
155	0x3f212bcb	0.6295745
156	0xbfb3ad4c	-1.4037261
157	0x3f8f1819	1.1179229
158	0x3ec80f11	0.39073995
159	0xc00a512c	-2.1612043
160	0x3f18db24	0.5970938
161	0xbf483f00	-0.7822113
162	0x3fa6b020	1.3022499
163	0xc003b329	-2.05781
164	0xbf7029f5	-0.9381402
165	0xbe3d8d74	-0.18510991
166	0x3f6ccbf5	0.92498714
167	0xbf33bf74	-0.7021401
168	0x3e6f1e7c	0.23351473
169	0x3f5476fe	0.8299407
170	0xbf3fdeb4	-0.74949193
171	0x3f982cf8	1.1888723
172	0xbd68460e	-0.056707434
173	0xbdf4f6aa	-0.1196111
174	0x3f1d6015	0.61474735
175	0x3ff188e9	1.8869907
176	0x3e9adfe8	0.30248952
177	0x3f5f5b93	0.87249106
178	0x3fb53ea4	1.4159741
179	0x3f79101c	0.97290206
180	0x3df57373	0.11984911
181	0x3ead1d72	0.33811527
182	0xbf5dc4e0	-0.8662853
183	0x3eebf182	0.46082693
184	0xbf0e2099	-0.5551849
185	0x3f65d2d6	0.89774835
186	0xbf58a962	-0.8463346
187	0x3ea218e1	0.31659606
188	0xbec816b8	-0.39079833
189	0x3de3438d	0.11096869
190	0xbf407170	-0.7517309
191	0xbf748944	-0.9552195
192	0xbec3695a	-0.38166314
193	0x3f437d42	0.76363003
194	0x3f706b0d	0.93913347
195	0x3f4f0b2f	0.8087644
196	0x3f8da17d	1.1064907
197	0x3fd3433f	1.6504897
198	0x3fd946f9	1.6974784
199	0x3de629b9	0.11238427
200	0xbfb343e9	-1.40051
201	0x3ed12181	0.40845874
202	0x3f6ff367	0.9373078
203	0x3dacb647	0.08433204
204	0x3ee379bb	0.4442881
205	0xbed402ea	-0.41408473
206	0x3fdf530a	1.7447217
207	0x3ed4db1b	0.41573414
208	0x3fac3a1b	1.3455232
209	0x3f76a219	0.9634109
210	0x3f3b4895	0.73157626
211	0xbf018f61	-0.50609404
212	0x3ea18633	0.31547698
213	0x3f420666	0.75791013
214	0x3f46583a	0.77478373
215	0x3fe332cd	1.7749878
216	0x401eeb24	2.4831018
217	0x4008220d	2.1270783
218	0x3f31316a	0.69216025
219	0x3f196a9b	0.5992829
220	0xbfe97059	-1.8237411
221	0x3f3edffe	0.74560535
222	0x3f119ccd	0.56879884
223	0xc00dceaa	-2.2157388
224	0x3f388f25	0.7209342
225	0xbf1bc9b1	-0.6085463
226	0x3ffc9c8e	1.9735277
227	0xc0192392	-2.392796
228	0xbf92c8d2	-1.1467535
229	0xbdb0b361	-0.08627964
230	0x3f6a88a1	0.9161473
231	0xbf260c17	-0.648622
232	0x3dc0be96	0.094113514
233	0x3f579605	0.84213287
234	0xbf2d94c0	-0.678051
235	0x3f86cc52	1.0531104
236	0x3eacc81a	0.33746415
237	0xbeee8f9a	-0.46593934
238	0x3f48a1b0	0.78371716
239	0x400c98ef	2.1968343
240	0x3e0dc696	0.13845286
241	0x3f80e28e	1.0069139
242	0x3fc6ee6a	1.5541508
243	0x3faa200c	1.329103
244	0x3e36488d	0.17801113
245	0x3f4a4230	0.79007244
246	0xbf8c070e	-1.0939653
247	0x3f425c95	0.7592252
248	0xbf45c1ab	-0.7724864
249	0x3edd2e50	0.43199396
250	0xbeac8c5f	-0.33700845
251	0x3e6e4a5e	0.23270556
252	0xbe2a229a	-0.16614762
253	0x3ee068e6	0.4383003
254	0xbf326892	-0.6969081
255	0xbf2d12ee	-0.6760701

fc2.bias f4 [64]
0	0xbf1be18f	-0.6089105
1	0xbf82016a	-1.0156682
2	0xbf8f26e1	-1.118374
3	0xbf8a59d5	-1.0808665
4	0xbf9eb912	-1.2400229
5	0xbf854539	-1.041175
6	0x40790172	3.8907132
7	0xbf686cb8	-0.9079089
8	0x3d0bb470	0.034107625
9	0xbf86fb11	-1.0545369
10	0xbf8d51cf	-1.1040591
11	0x3cb9c030	0.02267465
12	0xbf8af9f9	-1.0857536
13	0x40a40fa0	5.1269073
14	0x3d9c57ec	0.07633957
15	0xbeba3c81	-0.36374286
16	0xbf90103b	-1.1254953
17	0xbf8136ea	-1.0094883
18	0x3cee39fb	0.029080382
19	0xbf6e8518	-0.93171835
20	0xbe0836d5	-0.13302167
21	0xbf101512	-0.5628215
22	0xbf694f07	-0.9113621
23	0xbf897c51	-1.0741063
24	0xbfa180db	-1.2617449
25	0xbf879148	-1.0591211
26	0xbf85afb5	-1.0444247
27	0xbfab24b6	-1.3370578
28	0xbf873b57	-1.0564984
29	0xbf6e8c16	-0.93182504
30	0xbf0d2ad8	-0.551435
31	0xbd663e56	-0.056211792
32	0x4006d06c	2.106471
33	0xbd9b5cb2	-0.075860396
34	0x3d751cb2	0.05984182
35	0xbdded4d6	-0.10880439
36	0xbf90d8a4	-1.1316113
37	0xbf878596	-1.0587642
38	0xbf922dee	-1.1420267
39	0x3d95606e	0.07293783
40	0xbf7574f6	-0.95881593
41	0xbd0f920e	-0.035051398
42	0xbe08d1c1	-0.13361265
43	0xbd13fcef	-0.03612989
44	0xbd21ce29	-0.03950325
45	0xbf9f87a9	-1.2463275
46	0xbfa466ab	-1.2843832
47	0xbf548c85	-0.83026916
48	0xbda8d943	-0.082445644
49	0x40c05af0	6.011101
50	0xbfa7f449	-1.3121425
51	0xbf4cdd74	-0.8002541
52	0xbf1212f6	-0.5706018
53	0xbe10dfe8	-0.14147913
54	0xbf57903b	-0.84204453
55	0x3d365d88	0.044522792
56	0xbf8f5151	-1.1196691
57	0xbf689d5c	-0.9086511
58	0x40dc9f88	6.894474
59	0xbf5cbaa6	-0.862223
60	0xbf9e1fb8	-1.235343
61	0xbf917d7a	-1.1366417
62	0x409c1829	4.877949
63	0xbf8c6416	-1.0968044

fc3.weight f4 [9, 64]
0	0x3f224b97	0.6339659
1	0x3f121c29	0.5707422
2	0x3e646d5b	0.22307341
3	0x3e0deb9c	0.13859409
4	0x3fbf2930	1.4934444
5	0x3e10b3a9	0.14131035
6	0xc06f2cbe	-3.7371058
7	0x40112016	2.2675834
8	0xbdb9d4fc	-0.09073827
9	0x3fabbe5a	1.3417466
10	0x3fa9d13c	1.3266978
11	0xbdccaf79	-0.09994406
12	0x3f888529	1.0665637
13	0xc1160a91	-9.37758
14	0x3f822070	1.0166149
15	0x3f24eb11	0.6442118
16	0x3ed20595	0.41019884
17	0x3fa01852	1.2507422
18	0xbccbf588	-0.024897352
19	0x3f90613d	1.1279675
20	0x402648d7	2.5981958
21	0x3fa9cfe0	1.3266563
22	0x3fa6b474	1.302382
23	0x3ed0385b	0.40667996
24	0x3fe400b7	1.7812718
25	0x3f94cbf5	1.1624743
26	0x3fcc3e93	1.5956596
27	0x3fbb179a	1.4616578
28	0x3f0c9ebf	0.5492973
29	0x3f7c681b	0.9859635
30	0x3f8eea30	1.1165218
31	0xbdb064ac	-0.08612952
32	0xc04dfa22	-3.218392
33	0xbd224c18	-0.03962335
34	0xbda40ebf	-0.08010625
35	0xbd1a4cc4	-0.037670866
36	0x3f9cda39	1.2254096
37	0x3f934539	1.15055
38	0x3fb5b497	1.4195737
39	0xbd767c7e	-0.06017732
40	0x3f3fc48d	0.7490929
41	0x3b03b30d	0.0020095736
42	0xbd61ee8c	-0.055159137
43	0x3cd2885b	0.025699785
44	0x3cb55c49	0.022138732
45	0x3fa92423	1.3214153
46	0x4001c820	2.0278397
47	0x3fd19602	1.6373904
48	0xbd897f3c	-0.06713721
49	0xc1878035	-16.937601
50	0x3fa564f9	1.292144
51	0x3fb236a8	1.392293
52	0x402c212a	2.6895242
53	0xbce2efa0	-0.027702153
54	0x3dadcdda	0.08486529
55	0xbdad71d0	-0.08468974
56	0x3fab2c70	1.3372936
57	0x3f22e4bb	0.63630265
58	0xc11b006d	-9.687604
59	0x3f837894	1.0271173
60	0x3fe6f052	1.804209
61	0x3f722507	0.9458775
62	0xc03b6848	-2.9282398
63	0x3fa56b90	1.292345
64	0x3d16f742	0.036856897
65	0x3ab7a438	0.0014010733
66	0x3d5162dd	0.051119674
67	0xbdc75b03	-0.09734156
68	0x3bf494d4	0.0074640308
69	0x3c65f0f8	0.014034502
70	0xbb7f2976	-0.0038934625
71	0xbc8d1ff4	-0.01722715
72	0xbd29ee40	-0.04148698
73	0xbd689b15	-0.056788523
74	0xbde8adfb	-0.11361309
75	0x3b37e00b	0.0028057124
76	0xbc957d20	-0.01824814
77	0x3a7313ee	0.0009272684
78	0x38812702	6.158465e-05
79	0x3d0dd516	0.034627043
80	0x3c0208cc	0.007936668
81	0x3b9206c0	0.004456371
82	0xbde52cb7	-0.11190169
83	0xbd8da985	-0.06917099
84	0x3b4c43b6	0.0031168289
85	0xbcbb2795	-0.022846023
86	0xbdb7edb7	-0.089808874
87	0x3cee3476	0.02907775
88	0x3dd27612	0.102764264
89	0x3d885fad	0.06658874
90	0x3dafce51	0.085842736
91	0x3d2f2eed	0.04276936
92	0x3d1016be	0.03517794
93	0x3d237993	0.039910864
94	0x3b6695e6	0.0035184561
95	0x3dd6f1c3	0.10495331
96	0x3a199cba	0.0005859841
97	0x3dcbb736	0.09947054
98	0x3bf90437	0.0075993794
99	0xbb80fe31	-0.003936552
100	0xbd9591fc	-0.07303235
101	0xbad4a34e	-0.0016222985
102	0x3dfe48cf	0.12416231
103	0x3d798284	0.060915485
104	0xbd24a330	-0.04019469
105	0x3cb3f0a0	0.021965325
106	0xbd8c27ce	-0.0684353
107	0xbc3381b9	-0.010956221
108	0xbdec47ec	-0.115371555
109	0xbe0209e5	-0.12699087
110	0xbda33b84	-0.07970336
111	0xbc7bd446	-0.015370434
112	0xbda286db	-0.07935878
113	0xbbe3a38e	-0.0069469875
114	0x3d2681b3	0.040651035
115	0xbc794ad2	-0.015215592
116	0xb7843460	-1.5760015e-05
117	0xbd25f3ff	-0.040515896
118	0x3beabe11	0.007163771
119	0x3d5e8e69	0.05433503
120	0x3dbbba87	0.09166437
121	0xbd5b8314	-0.053591803
122	0xba2149a0	-0.00061526336
123	0xbd56acf4	-0.052411035
124	0x3d49724c	0.049181268
125	0x3dc2573d	0.09489296
126	0x3add12b1	0.0016866532
127	0xbd145011	-0.03620917
128	0xbf5d1e6f	-0.8637456
129	0x3de163e4	0.11005381
130	0x3f1c6454	0.6109059
131	0x3f0477ad	0.5174511
132	0x3f7a7407	0.97833294
133	0xbead4dc1	-0.33848384
134	0xbf338dde	-0.7013835
135	0xbfa90e74	-1.3207536
136	0x3babb62d	0.005240223
137	0xbe26e953	-0.16299944
138	0xbda9fb73	-0.08299913
139	0x3da4a3d8	0.08039063
140	0xbde93f20	-0.11388993
141	0x3de3eb87	0.11128908
142	0x404b73ca	3.1789422
143	0xbfcc419d	-1.5957524
144	0xbe9dbe63	-0.30809316
145	0xbec437e2	-0.38323885
146	0xbd70bdd6	-0.05877479
147	0xbf456bc4	-0.7711756
148	0xbf78d190	-0.97194767
149	0x3ec9c48b	0.39407763
150	0xbf5f713e	-0.8728217
151	0xbf474a1f	-0.77847475
152	0x3f67216b	0.90285367
153	0xbed17a59	-0.40913656
154	0x3df1bcdf	0.118036024
155	0x3f4f7305	0.8103488
156	0x3fa5e299	1.2959777
157	0xbee5e079	-0.44897822
158	0xbe8bca0f	-0.27302596
159	0x3dcf4d96	0.1012222
160	0xbf8b89f2	-1.0901473
161	0x3d7bf4b2	0.061512657
162	0x3d98d1db	0.07461902
163	0x3dd933a0	0.1060555
164	0x3f60d040	0.87817764
165	0x3f3ff854	0.74988294
166	0x3eee6d67	0.46567842
167	0xbda39fb9	-0.07989449
168	0x3fc6d96d	1.5535103
169	0xbd4f2d5f	-0.05058038
170	0x3cfa68be	0.030567523
171	0x3a9b28a7	0.0011837677
172	0xbd69ef3f	-0.05711293
173	0x3f935e14	1.1513085
174	0x3f857a08	1.0427866
175	0xbeb3f191	-0.35145238
176	0xbbfec9e0	-0.00777553
177	0xbfa18aed	-1.2620522
178	0x3f655df0	0.8959646
179	0xbfb6a936	-1.4270389
180	0xc05743ba	-3.3635087
181	0xbdec653a	-0.11542745
182	0xbe53f892	-0.20700291
183	0xbd8c7522	-0.06858279
184	0xbf2a2c8f	-0.6647424
185	0xbe8f1d89	-0.2795222
186	0xbe4b5f12	-0.19860485
187	0xbf80895d	-1.004192
188	0x3f3d0627	0.7383751
189	0xbdf21037	-0.11819499
190	0x3f1715f2	0.5901786
191	0x3ec9d789	0.39422253
192	0xbd8e4f9f	-0.0694878
193	0x3d46e1f7	0.04855534
194	0x3d1ac0a3	0.03778137
195	0x3d7ba3bf	0.061435457
196	0x3dcd4edb	0.10024806
197	0xbd591f83	-0.053008568
198	0xbb4da4a6	-0.0031378656
199	0xbbc8b0ec	-0.0061246064
200	0x3d741737	0.059592452
201	0xbd1056e6	-0.035239123
202	0xbdd15bfd	-0.102226235
203	0x3df0cd37	0.117578916
204	0xbd611217	-0.054948892
205	0x39f3db60	0.0004651202
206	0x3a5823c3	0.0008245075
207	0x3d0f3167	0.034959223
208	0xbd73032c	-0.059329197
209	0x3d3a5c66	0.045498274
210	0x3d109357	0.035296764
211	0xbdb4b838	-0.088241994
212	0x3b9958c4	0.004679771
213	0x3c4d9cfb	0.012549634
214	0xbd332a6d	-0.043741632
215	0xbbf85b6c	-0.0075792577
216	0x3d187966	0.03722515
217	0xbced8b5f	-0.028997121
218	0xbccdca6f	-0.025120942
219	0xbc4ba364	-0.012429092
220	0xbd2ce773	-0.042212915
221	0xbc41e0a2	-0.011833342
222	0x3b1812b6	0.0023204512
223	0xbe0ba310	-0.13636422
224	0xba8120ec	-0.000985173
225	0xbdac6976	-0.084185526
226	0x3b8a7185	0.0042249584
227	0x3e12de65	0.1434265
228	0xbcda5914	-0.026653804
229	0xbc7f0b5a	-0.015566671
230	0x3d91838f	0.07105171
231	0x3cd0d14b	0.025490424
232	0xbd6e7047	-0.058212545
233	0xbc3c2fdb	-0.011486019
234	0x3d81acda	0.06331797
235	0xbd8978fc	-0.06712529
236	0x3c56caab	0.013109843
237	0xbd8aee5f	-0.06783747
238	0xbd0e8a21	-0.0347997
239	0x3c0b15ba	0.008489067
240	0x3de043b1	0.10950411
241	0xbbaf3b2f	-0.0053476314
242	0x3d264eba	0.040602423
243	0x3cec278a	0.028827447
244	0xba9b9157	-0.0011868876
245	0xbdde495a	-0.108538345
246	0xbc0c0d37	-0.008548073
247	0x395a7059	0.00020831953
248	0x3de70e2b	0.11281999
249	0x3dbf6836	0.093460485
250	0xb9dc6d88	-0.00042043277
251	0x3d2abf3c	0.04168628
252	0x3ab0506c	0.0013451702
253	0x3da130ce	0.07870637
254	0x3ae22e50	0.0017256234
255	0xbc8db517	-0.017298264

fc3.bias f4 [9]
0	0xbf6811d9	-0.90652233
1	0x3f2a222e	0.66458404
2	0xbf15d0cd	-0.5852173
3	0x3eaba6e3	0.33525762
4	0xbf14f442	-0.5818521
5	0xbf566121	-0.83741957
6	0xbf0d82e4	-0.5527785
7	0xbf55b2b3	-0.834758
8	0x40109842	2.259293
